{"format": "torch", "nodes": [{"name": "longformer", "id": 139815285545232, "class_name": "LongformerModel(\n  (embeddings): LongformerEmbeddings(\n    (word_embeddings): Embedding(65041, 768, padding_idx=1)\n    (position_embeddings): Embedding(4098, 768, padding_idx=1)\n    (token_type_embeddings): Embedding(1, 768)\n    (LayerNorm): LayerNorm((768,), eps=1e-05, elementwise_affine=True)\n    (dropout): Dropout(p=0.1, inplace=False)\n  )\n  (encoder): LongformerEncoder(\n    (layer): ModuleList(\n      (0): LongformerLayer(\n        (attention): LongformerAttention(\n          (self): LongformerSelfAttention(\n            (query): Linear(in_features=768, out_features=768, bias=True)\n            (key): Linear(in_features=768, out_features=768, bias=True)\n            (value): Linear(in_features=768, out_features=768, bias=True)\n            (query_global): Linear(in_features=768, out_features=768, bias=True)\n            (key_global): Linear(in_features=768, out_features=768, bias=True)\n            (value_global): Linear(in_features=768, out_features=768, bias=True)\n          )\n          (output): LongformerSelfOutput(\n            (dense): Linear(in_features=768, out_features=768, bias=True)\n            (LayerNorm): LayerNorm((768,), eps=1e-05, elementwise_affine=True)\n            (dropout): Dropout(p=0.1, inplace=False)\n          )\n        )\n        (intermediate): LongformerIntermediate(\n          (dense): Linear(in_features=768, out_features=3072, bias=True)\n        )\n        (output): LongformerOutput(\n          (dense): Linear(in_features=3072, out_features=768, bias=True)\n          (LayerNorm): LayerNorm((768,), eps=1e-05, elementwise_affine=True)\n          (dropout): Dropout(p=0.1, inplace=False)\n        )\n      )\n      (1): LongformerLayer(\n        (attention): LongformerAttention(\n          (self): LongformerSelfAttention(\n            (query): Linear(in_features=768, out_features=768, bias=True)\n            (key): Linear(in_features=768, out_features=768, bias=True)\n            (value): Linear(in_features=768, out_features=768, bias=True)\n            (query_global): Linear(in_features=768, out_features=768, bias=True)\n            (key_global): Linear(in_features=768, out_features=768, bias=True)\n            (value_global): Linear(in_features=768, out_features=768, bias=True)\n          )\n          (output): LongformerSelfOutput(\n            (dense): Linear(in_features=768, out_features=768, bias=True)\n            (LayerNorm): LayerNorm((768,), eps=1e-05, elementwise_affine=True)\n            (dropout): Dropout(p=0.1, inplace=False)\n          )\n        )\n        (intermediate): LongformerIntermediate(\n          (dense): Linear(in_features=768, out_features=3072, bias=True)\n        )\n        (output): LongformerOutput(\n          (dense): Linear(in_features=3072, out_features=768, bias=True)\n          (LayerNorm): LayerNorm((768,), eps=1e-05, elementwise_affine=True)\n          (dropout): Dropout(p=0.1, inplace=False)\n        )\n      )\n      (2): LongformerLayer(\n        (attention): LongformerAttention(\n          (self): LongformerSelfAttention(\n            (query): Linear(in_features=768, out_features=768, bias=True)\n            (key): Linear(in_features=768, out_features=768, bias=True)\n            (value): Linear(in_features=768, out_features=768, bias=True)\n            (query_global): Linear(in_features=768, out_features=768, bias=True)\n            (key_global): Linear(in_features=768, out_features=768, bias=True)\n            (value_global): Linear(in_features=768, out_features=768, bias=True)\n          )\n          (output): LongformerSelfOutput(\n            (dense): Linear(in_features=768, out_features=768, bias=True)\n            (LayerNorm): LayerNorm((768,), eps=1e-05, elementwise_affine=True)\n            (dropout): Dropout(p=0.1, inplace=False)\n          )\n        )\n        (intermediate): LongformerIntermediate(\n          (dense): Linear(in_features=768, out_features=3072, bias=True)\n        )\n        (output): LongformerOutput(\n          (dense): Linear(in_features=3072, out_features=768, bias=True)\n          (LayerNorm): LayerNorm((768,), eps=1e-05, elementwise_affine=True)\n          (dropout): Dropout(p=0.1, inplace=False)\n        )\n      )\n      (3): LongformerLayer(\n        (attention): LongformerAttention(\n          (self): LongformerSelfAttention(\n            (query): Linear(in_features=768, out_features=768, bias=True)\n            (key): Linear(in_features=768, out_features=768, bias=True)\n            (value): Linear(in_features=768, out_features=768, bias=True)\n            (query_global): Linear(in_features=768, out_features=768, bias=True)\n            (key_global): Linear(in_features=768, out_features=768, bias=True)\n            (value_global): Linear(in_features=768, out_features=768, bias=True)\n          )\n          (output): LongformerSelfOutput(\n            (dense): Linear(in_features=768, out_features=768, bias=True)\n            (LayerNorm): LayerNorm((768,), eps=1e-05, elementwise_affine=True)\n            (dropout): Dropout(p=0.1, inplace=False)\n          )\n        )\n        (intermediate): LongformerIntermediate(\n          (dense): Linear(in_features=768, out_features=3072, bias=True)\n        )\n        (output): LongformerOutput(\n          (dense): Linear(in_features=3072, out_features=768, bias=True)\n          (LayerNorm): LayerNorm((768,), eps=1e-05, elementwise_affine=True)\n          (dropout): Dropout(p=0.1, inplace=False)\n        )\n      )\n      (4): LongformerLayer(\n        (attention): LongformerAttention(\n          (self): LongformerSelfAttention(\n            (query): Linear(in_features=768, out_features=768, bias=True)\n            (key): Linear(in_features=768, out_features=768, bias=True)\n            (value): Linear(in_features=768, out_features=768, bias=True)\n            (query_global): Linear(in_features=768, out_features=768, bias=True)\n            (key_global): Linear(in_features=768, out_features=768, bias=True)\n            (value_global): Linear(in_features=768, out_features=768, bias=True)\n          )\n          (output): LongformerSelfOutput(\n            (dense): Linear(in_features=768, out_features=768, bias=True)\n            (LayerNorm): LayerNorm((768,), eps=1e-05, elementwise_affine=True)\n            (dropout): Dropout(p=0.1, inplace=False)\n          )\n        )\n        (intermediate): LongformerIntermediate(\n          (dense): Linear(in_features=768, out_features=3072, bias=True)\n        )\n        (output): LongformerOutput(\n          (dense): Linear(in_features=3072, out_features=768, bias=True)\n          (LayerNorm): LayerNorm((768,), eps=1e-05, elementwise_affine=True)\n          (dropout): Dropout(p=0.1, inplace=False)\n        )\n      )\n      (5): LongformerLayer(\n        (attention): LongformerAttention(\n          (self): LongformerSelfAttention(\n            (query): Linear(in_features=768, out_features=768, bias=True)\n            (key): Linear(in_features=768, out_features=768, bias=True)\n            (value): Linear(in_features=768, out_features=768, bias=True)\n            (query_global): Linear(in_features=768, out_features=768, bias=True)\n            (key_global): Linear(in_features=768, out_features=768, bias=True)\n            (value_global): Linear(in_features=768, out_features=768, bias=True)\n          )\n          (output): LongformerSelfOutput(\n            (dense): Linear(in_features=768, out_features=768, bias=True)\n            (LayerNorm): LayerNorm((768,), eps=1e-05, elementwise_affine=True)\n            (dropout): Dropout(p=0.1, inplace=False)\n          )\n        )\n        (intermediate): LongformerIntermediate(\n          (dense): Linear(in_features=768, out_features=3072, bias=True)\n        )\n        (output): LongformerOutput(\n          (dense): Linear(in_features=3072, out_features=768, bias=True)\n          (LayerNorm): LayerNorm((768,), eps=1e-05, elementwise_affine=True)\n          (dropout): Dropout(p=0.1, inplace=False)\n        )\n      )\n      (6): LongformerLayer(\n        (attention): LongformerAttention(\n          (self): LongformerSelfAttention(\n            (query): Linear(in_features=768, out_features=768, bias=True)\n            (key): Linear(in_features=768, out_features=768, bias=True)\n            (value): Linear(in_features=768, out_features=768, bias=True)\n            (query_global): Linear(in_features=768, out_features=768, bias=True)\n            (key_global): Linear(in_features=768, out_features=768, bias=True)\n            (value_global): Linear(in_features=768, out_features=768, bias=True)\n          )\n          (output): LongformerSelfOutput(\n            (dense): Linear(in_features=768, out_features=768, bias=True)\n            (LayerNorm): LayerNorm((768,), eps=1e-05, elementwise_affine=True)\n            (dropout): Dropout(p=0.1, inplace=False)\n          )\n        )\n        (intermediate): LongformerIntermediate(\n          (dense): Linear(in_features=768, out_features=3072, bias=True)\n        )\n        (output): LongformerOutput(\n          (dense): Linear(in_features=3072, out_features=768, bias=True)\n          (LayerNorm): LayerNorm((768,), eps=1e-05, elementwise_affine=True)\n          (dropout): Dropout(p=0.1, inplace=False)\n        )\n      )\n      (7): LongformerLayer(\n        (attention): LongformerAttention(\n          (self): LongformerSelfAttention(\n            (query): Linear(in_features=768, out_features=768, bias=True)\n            (key): Linear(in_features=768, out_features=768, bias=True)\n            (value): Linear(in_features=768, out_features=768, bias=True)\n            (query_global): Linear(in_features=768, out_features=768, bias=True)\n            (key_global): Linear(in_features=768, out_features=768, bias=True)\n            (value_global): Linear(in_features=768, out_features=768, bias=True)\n          )\n          (output): LongformerSelfOutput(\n            (dense): Linear(in_features=768, out_features=768, bias=True)\n            (LayerNorm): LayerNorm((768,), eps=1e-05, elementwise_affine=True)\n            (dropout): Dropout(p=0.1, inplace=False)\n          )\n        )\n        (intermediate): LongformerIntermediate(\n          (dense): Linear(in_features=768, out_features=3072, bias=True)\n        )\n        (output): LongformerOutput(\n          (dense): Linear(in_features=3072, out_features=768, bias=True)\n          (LayerNorm): LayerNorm((768,), eps=1e-05, elementwise_affine=True)\n          (dropout): Dropout(p=0.1, inplace=False)\n        )\n      )\n      (8): LongformerLayer(\n        (attention): LongformerAttention(\n          (self): LongformerSelfAttention(\n            (query): Linear(in_features=768, out_features=768, bias=True)\n            (key): Linear(in_features=768, out_features=768, bias=True)\n            (value): Linear(in_features=768, out_features=768, bias=True)\n            (query_global): Linear(in_features=768, out_features=768, bias=True)\n            (key_global): Linear(in_features=768, out_features=768, bias=True)\n            (value_global): Linear(in_features=768, out_features=768, bias=True)\n          )\n          (output): LongformerSelfOutput(\n            (dense): Linear(in_features=768, out_features=768, bias=True)\n            (LayerNorm): LayerNorm((768,), eps=1e-05, elementwise_affine=True)\n            (dropout): Dropout(p=0.1, inplace=False)\n          )\n        )\n        (intermediate): LongformerIntermediate(\n          (dense): Linear(in_features=768, out_features=3072, bias=True)\n        )\n        (output): LongformerOutput(\n          (dense): Linear(in_features=3072, out_features=768, bias=True)\n          (LayerNorm): LayerNorm((768,), eps=1e-05, elementwise_affine=True)\n          (dropout): Dropout(p=0.1, inplace=False)\n        )\n      )\n      (9): LongformerLayer(\n        (attention): LongformerAttention(\n          (self): LongformerSelfAttention(\n            (query): Linear(in_features=768, out_features=768, bias=True)\n            (key): Linear(in_features=768, out_features=768, bias=True)\n            (value): Linear(in_features=768, out_features=768, bias=True)\n            (query_global): Linear(in_features=768, out_features=768, bias=True)\n            (key_global): Linear(in_features=768, out_features=768, bias=True)\n            (value_global): Linear(in_features=768, out_features=768, bias=True)\n          )\n          (output): LongformerSelfOutput(\n            (dense): Linear(in_features=768, out_features=768, bias=True)\n            (LayerNorm): LayerNorm((768,), eps=1e-05, elementwise_affine=True)\n            (dropout): Dropout(p=0.1, inplace=False)\n          )\n        )\n        (intermediate): LongformerIntermediate(\n          (dense): Linear(in_features=768, out_features=3072, bias=True)\n        )\n        (output): LongformerOutput(\n          (dense): Linear(in_features=3072, out_features=768, bias=True)\n          (LayerNorm): LayerNorm((768,), eps=1e-05, elementwise_affine=True)\n          (dropout): Dropout(p=0.1, inplace=False)\n        )\n      )\n      (10): LongformerLayer(\n        (attention): LongformerAttention(\n          (self): LongformerSelfAttention(\n            (query): Linear(in_features=768, out_features=768, bias=True)\n            (key): Linear(in_features=768, out_features=768, bias=True)\n            (value): Linear(in_features=768, out_features=768, bias=True)\n            (query_global): Linear(in_features=768, out_features=768, bias=True)\n            (key_global): Linear(in_features=768, out_features=768, bias=True)\n            (value_global): Linear(in_features=768, out_features=768, bias=True)\n          )\n          (output): LongformerSelfOutput(\n            (dense): Linear(in_features=768, out_features=768, bias=True)\n            (LayerNorm): LayerNorm((768,), eps=1e-05, elementwise_affine=True)\n            (dropout): Dropout(p=0.1, inplace=False)\n          )\n        )\n        (intermediate): LongformerIntermediate(\n          (dense): Linear(in_features=768, out_features=3072, bias=True)\n        )\n        (output): LongformerOutput(\n          (dense): Linear(in_features=3072, out_features=768, bias=True)\n          (LayerNorm): LayerNorm((768,), eps=1e-05, elementwise_affine=True)\n          (dropout): Dropout(p=0.1, inplace=False)\n        )\n      )\n      (11): LongformerLayer(\n        (attention): LongformerAttention(\n          (self): LongformerSelfAttention(\n            (query): Linear(in_features=768, out_features=768, bias=True)\n            (key): Linear(in_features=768, out_features=768, bias=True)\n            (value): Linear(in_features=768, out_features=768, bias=True)\n            (query_global): Linear(in_features=768, out_features=768, bias=True)\n            (key_global): Linear(in_features=768, out_features=768, bias=True)\n            (value_global): Linear(in_features=768, out_features=768, bias=True)\n          )\n          (output): LongformerSelfOutput(\n            (dense): Linear(in_features=768, out_features=768, bias=True)\n            (LayerNorm): LayerNorm((768,), eps=1e-05, elementwise_affine=True)\n            (dropout): Dropout(p=0.1, inplace=False)\n          )\n        )\n        (intermediate): LongformerIntermediate(\n          (dense): Linear(in_features=768, out_features=3072, bias=True)\n        )\n        (output): LongformerOutput(\n          (dense): Linear(in_features=3072, out_features=768, bias=True)\n          (LayerNorm): LayerNorm((768,), eps=1e-05, elementwise_affine=True)\n          (dropout): Dropout(p=0.1, inplace=False)\n        )\n      )\n    )\n  )\n)", "parameters": [["embeddings.word_embeddings.weight", [65041, 768]], ["embeddings.position_embeddings.weight", [4098, 768]], ["embeddings.token_type_embeddings.weight", [1, 768]], ["embeddings.LayerNorm.weight", [768]], ["embeddings.LayerNorm.bias", [768]], ["encoder.
…
